…
          "base_uri": "https://localhost:8080/"
        },
        "id": "MuijJBhnM-Mx",
        "outputId": "31d9c68c-603c-43a4-b65f-fd85eeef8e6b"
      },
      "execution_count": 151,
      "outputs": [
        {
          "output_type": "stream",
          "name": "stdout",
          "text": [
            "Model: \"sequential_2\"\n",
            "_________________________________________________________________\n",
            " Layer (type)                Output Shape              Param #   \n",
            "=================================================================\n",
            " batch_normalization_2 (Batc  (None, 128, 128, 3)      12        \n",
            " hNormalization)                                                 \n",
            "                                                                 \n",
            " conv2d_16 (Conv2D)          (None, 128, 128, 32)      896       \n",
            "                                                                 \n",
            " conv2d_17 (Conv2D)          (None, 126, 126, 32)      9248      \n",
            "                                                                 \n",
            " max_pooling2d_8 (MaxPooling  (None, 63, 63, 32)       0         \n",
            " 2D)                                                             \n",
            "                                                                 \n",
            " dropout_10 (Dropout)        (None, 63, 63, 32)        0         \n",
            "                                                                 \n",
            " conv2d_18 (Conv2D)          (None, 63, 63, 64)        18496     \n",
            "                                                                 \n",
            " conv2d_19 (Conv2D)          (None, 61, 61, 64)        36928     \n",
            "                                                                 \n",
            " max_pooling2d_9 (MaxPooling  (None, 30, 30, 64)       0         \n",
            " 2D)                                                             \n",
            "                                                                 \n",
            " dropout_11 (Dropout)        (None, 30, 30, 64)        0         \n",
            "                                                                 \n",
            " conv2d_20 (Conv2D)          (None, 30, 30, 128)       73856     \n",
            "                                                                 \n",
            " conv2d_21 (Conv2D)          (None, 28, 28, 128)       147584    \n",
            "                                                                 \n",
            " max_pooling2d_10 (MaxPoolin  (None, 14, 14, 128)      0         \n",
            " g2D)                                                            \n",
            "                                                                 \n",
            " dropout_12 (Dropout)        (None, 14, 14, 128)       0         \n",
            "                                                                 \n",
            " conv2d_22 (Conv2D)          (None, 14, 14, 256)       295168    \n",
            "                                                                 \n",
            " conv2d_23 (Conv2D)          (None, 12, 12, 256)       590080    \n",
            "                                                                 \n",
            " max_pooling2d_11 (MaxPoolin  (None, 6, 6, 256)        0         \n",
            " g2D)                                                            \n",
            "                                                                 \n",
            " dropout_13 (Dropout)        (None, 6, 6, 256)         0         \n",
            "                                                                 \n",
            " flatten_2 (Flatten)         (None, 9216)              0         \n",
            "                                                                 \n",
            " dense_4 (Dense)             (None, 512)               4719104   \n",
            "                                                                 \n",
            " dropout_14 (Dropout)        (None, 512)               0         \n",
            "                                                                 \n",
            " dense_5 (Dense)             (None, 17)                8721      \n",
            "                                                                 \n",
            "=================================================================\n",
            "Total params: 5,900,093\n",
            "Trainable params: 5,900,087\n",
            "Non-trainable params: 6\n",
            "_________________________________________________________________\n"
          ]
        }
…
